runs/flappybird.pt (torch, 33339 bytes, 4 tensors)

sequential.0.weight f4 [512, 12]
00000000: 323c bbbb 6dd3 d7bd f1b0 b43c a54b d83b
00000010: c15c b0bd f05c 26be d99a 4cbe 0443 873e
00000020: c178 61be 60f0 7abe dbd2 8d3e cc98 93be
00000030: c1c1 03bb c97e 39be deae 09be 100c 143e
00000040: 7e54 0e3e c2b6 8cbe 9778 ae3c d5d5 5dbe
00000050: d866 83bd f4de 8bbf fad7 a33e a1d7 ce3d
00000060: 71ba 10bf 1842 563e 6a80 7b3c 910a 613e
00000070: a449 86be a469 4f3e 3f69 72be 5df8 6dbe
00000080: c3eb 843e b525 cabe e0e2 893c cc50 1fbd
00000090: 3006 74be c128 60be 328c 543e e263 93bc
000000a0: 94d1 7e3e 7dac 063d 68d2 8fbe c94b 5a3e
000000b0: af7a 4fbe 85f5 2ebe 2994 403e ee47 0fbe
000000c0: 7f07 403f 7acc 9dbe 5910 3c3e a92b 7fbe
000000d0: 3c7f 89be 13fa 183d 9759 e6bd 20a3 3fbe
000000e0: a019 31be 29aa a13f d8ab e63b 2c6b 0abd
000000f0: 0b93 dcbe e980 3fba 2917 a53e a5c0 ff3b
00000100: 9a2a 863d 3794 683e 9538 543d a01e 293d
00000110: 3448 dcbd 0f61 46be 7b88 a2bd cdfa 28be
00000120: d40a a53e fb11 8a3d c246 6cbd 8bea 663d
00000130: 3834 95be 05f7 7d3e 56fa 5bbe e515 0b3e
00000140: 6218 833e 2ae2 6fbe 7453 32bd 1978 55be
00000150: 485d 40be dc1c f1bd 6ba5 6b3e b6ee 46be
00000160: 49b7 4ebe 771f a33d b9dc 4d3e b3ff dcbd
00000170: e481 003e 4933 2fbf 9afc cfbe 50b3 033d
00000180: e953 323f e690 2dbd 1b96 e33d c3b0 71bd
00000190: d537 e0be 3a00 ab3c e3df 92be 4a86 c73b
000001a0: 27ed 113e 0b90 8e3f 0dd8 843e 1e31 de3d
000001b0: 364a ab3e 1228 e7bd 6d70 973d bf4a 513e
000001c0: 9c4a 77bc 5ff7 ca3e df97 403e d62f b73d
000001d0: bdc2 673c e21c 033f b23f a93e f422 b13d
000001e0: 5189 13be a271 12be 0c0c 51be 40ea 80be
000001f0: d150 e93d 186f d7bb 7612 88be 1edd 3f3e
00000200: bc9e 3dbe 0312 b7bd ef3b 063e 6acc 6abe
00000210: 1a7e a03d 6c8b 72bd 848f d73d 0446 4cbe
00000220: ac99 083c af62 25be d200 3f3e 8b7f 023d
00000230: ae1c d8bd 0c01 67bd f81c 84be f49d 5a3d
00000240: 2a16 23be 89d2 5a3e 9e88 65bd ff86 823d
00000250: c664 873e 23e0 13bc 8b35 c4bc fc30 963d
00000260: b83a 8ebe d805 493e c326 f03d 8c57 6d3e
00000270: bed8 cb3c e86f ed3d cd9c 1fbe 8062 63be
00000280: 5d3c 36be d892 89be 82df 80be 5844 ccbb
00000290: 0335 903e d6a7 efbc 5280 4f3e 3d64 033e
000002a0: a1da b7be 96ca ad3d 1e5c 0b3e db67 823e
000002b0: eaa9 a83d d019 23be bfba 58bd f23e b9bc
000002c0: 3ccd af3e 434a 5ebf 1414 623d 6216 6dbd
000002d0: 5b27 45be 9322 9ebd cbd7 f1bd 3d1e e23d
000002e0: ce65 3fbd d5ef 123e 4abf 51be b740 7abe
000002f0: 54df 43be 8e6e 723c 23db 2dbd e628 393e
00000300: f6f6 fdbe 21f7 99bd 49ff b93e b758 b93e
00000310: 9a57 af3d aa40 e6bc 7c59 2fbb 073f 6a3e
00000320: db0c 9a3d 7784 3abf a931 973d db0a 833e
00000330: 653b d33d cef8 df3d 8bee 243e 5f1c 6d3e
00000340: 10df 5fbe d9ec d2bd 6eec c93d 0241 9c3d
00000350: 1f63 793e 15a7 2dbe 6531 903d 062c a03e
00000360: 9b54 61be 15a6 b73d 103c 3dbe 71c1 83be
00000370: 0c8b 0fbe 1001 6dbe c0cc 13be 627d a0bd
00000380: bf83 743e 53f9 4b3e 5260 41bb 3e12 b43c
00000390: 062b 0a3d 4eb7 1b3e aa81 f3bd dc45 263e
000003a0: 9ece 98be cd8b 3bbe 0f77 063e 1bee 61bc
000003b0: 1a42 95be 4ae9 15be 6c02 b0be 283d bb3d
000003c0: aa79 debd cf39 cebb fe2c f93c ef56 713d
000003d0: fd04 6d3e 693d 0fbd be45 673e a68c babd
000003e0: 29dc 773e 7b21 18bf 7b53 283d e54f 37be
000003f0: d0f8 d03d 07c3 aa3e f973 15be a364 fabd
-0.005713963 -0.10538373 0.022057028 0.0066008144 -0.086114414 -0.1624639 -0.19980945 0.26418316
-0.2201872 -0.24505758 0.27699932 -0.28827512 -0.00201045 -0.18114771 -0.13445613 0.14457726
0.13899419 -0.27483183 0.021297736 -0.21663602 -0.064161 -1.0927415 0.32000715 0.10099722
-0.56534487 0.2092365 0.0153504405 0.21976687 -0.26228058 0.20255142 -0.2367296 -0.23239274
0.25961122 -0.39481893 0.016831815 -0.038895413 -0.23830485 -0.21890546 0.20756605 -0.017991964
0.24884635 0.03287934 -0.28090215 0.21317972 -0.20261644 -0.17085846 0.18806519 -0.13992283
0.7501144 -0.30820066 0.18365611 -0.24918999 -0.26854885 0.037347864 -0.11247557 -0.18714571
-0.17294931 1.2630054 0.0070395283 -0.033793613 -0.43080935 -0.0007305281 0.32244232 0.0078049474
0.06551094 0.2271279 0.051811773 0.041288972 -0.10755959 -0.19372962 -0.07936188 -0.16501923
0.32234824 0.06741711 -0.057684667 0.05637602 -0.29141402 0.24801262 -0.21482214 0.13582571
0.2560454 -0.23426118 -0.04353662 -0.20846595 -0.18785584 -0.117730826 0.2301232 -0.19426998
-0.20187105 0.07964986 0.2010373 -0.10790958 0.1254955 -0.6843763 -0.40622407 0.032153428
0.69659287 -0.042374514 0.11112615 -0.059006464 -0.43792596 0.020874131 -0.28686437 0.0060890066
0.14250623 1.1137708 0.25946084 0.10849212 0.33455056 -0.1128694 0.073944904 0.2043867
-0.015093472 0.39641854 0.18807934 0.08944671 0.01414555 0.51215947 0.33056408 0.08649245
-0.14407851 -0.1430116 -0.20414752 -0.2517872 0.11392368 -0.0065745227 -0.26576585 0.18736693
-0.18517584 -0.08938982 0.131088 -0.2292954 0.07836552 -0.059214994 0.1052542 -0.19948584
0.0083374195 -0.16150926 0.18652657 0.031859916 -0.10552345 -0.056397483 -0.2580335 0.053373292
-0.15926424 0.21369375 -0.05603849 0.06373405 0.26444072 -0.009025606 -0.023951313 0.07333562
-0.27779174 0.19631135 0.11726143 0.23177928 0.024883624 0.1159361 -0.15587159 -0.22205544
-0.17796464 -0.26869845 -0.25170523 -0.006233733 0.28165445 -0.029254835 0.20263794 0.12831207
-0.35908988 0.08485906 0.13609359 0.2546986 0.082355335 -0.15927815 -0.05291247 -0.022613022
0.3433627 -0.86832064 0.05519493 -0.057882674 -0.19253294 -0.07721438 -0.11808737 0.11040924
-0.046727948 0.14349301 -0.20483127 -0.24438749 -0.19128162 0.014796866 -0.042445313 0.18082008
-0.4960248 -0.07517839 0.3632758 0.36200497 0.085616305 -0.028107006 -0.0026756218 0.22875606
0.07521983 -0.72858375 0.07382519 0.2559422 0.10314063 0.109361276 0.16106622 0.23155354
-0.21862435 -0.10299081 0.098595485 0.07629587 0.24354218 -0.16958268 0.07040671 0.31283587
-0.2200493 0.089672245 -0.18479943 -0.25733522 -0.14017886 -0.23144937 -0.14433575 -0.07836415
0.23878382 0.19919328 -0.0029506874 0.021981355 0.033732437 0.15206644 -0.11889966 0.16237587
-0.29845136 -0.18315049 0.13131355 -0.013789679 -0.29151994 -0.14639774 -0.34376848 0.09142524
-0.10863049 -0.0062935124 0.030416962 0.058920797 0.23146434 -0.034970675 0.22585198 -0.09108858
0.24205078 -0.5942609 0.04109524 -0.17901571 0.10203707 0.3335192 -0.14595021 -0.12226226

sequential.0.bias f4 [512]
00000000: 791f 6cbe 5bc1 2a3e a311 b43d 2eff 283d
00000010: 0c16 a13d fb28 883e fcd5 383e fc1f d63d
00000020: c5f9 4bbe 8d55 82bc c32f 043e 2c9c 8bbe
00000030: 18d4 4abe 9e65 e83d b1e6 e03d 642b c73d
00000040: 4e2e 0b3d 94c4 223e c9e5 1abd 36ba 593c
00000050: 8d9f 84be fdbf b93d 98ff 41bd cf84 ffbc
00000060: c1f6 883e bcd8 83be eedf 9f3e 1030 8bbe
00000070: 1f52 a13e a6bb 303e d90d 2d3e a244 933c
00000080: 3c57 cf3c 8319 923d 6dca 31be f23d 013e
00000090: 6456 1c3e 93c2 6cbe 53e2 02be 43dc 983d
000000a0: f7a5 89be 1cbf d93d 9946 95bd d846 c53e
000000b0: bdc8 9dbe 3acb 19bd cf74 263e 5727 923e
000000c0: cbb1 b93c 6a1a 78bd f174 773d dcb7 a4be
000000d0: 33b7 8cbe f12e 83bd aa39 3dbe 6590 083e
000000e0: cb13 16be 3941 0c3e dd66 1e3d 12b1 b5bc
000000f0: 1aae 0c3e f0de 3ebe cbfb 0ebe 9996 8ebe
00000100: 5b05 173e 6399 56be 32b2 933e 0065 3abe
00000110: 9bac 05be 05ab 2bbe 5b9f 213d 05fd 29be
00000120: 9e06 eabd 1354 cb3d c128 763e eb74 f93d
00000130: 7194 bbbc f737 2ebe da95 85be 0d12 fb3d
00000140: b8a6 59be bb5b 373e acfd 4c3c 4cb7 6b3e
00000150: 14db 4a3e e3a3 7b3d e2c1 ac3e 27a7 213e
00000160: a000 373e 65a2 3d3e 8b8c 44be 3254 933e
00000170: 7811 45be be9d 8f3e cd89 a43e 5f1d 543d
00000180: 4a03 b9bb 435b 3f3d ac00 553e ade1 963e
00000190: ddd0 88bd fcf3 6abe ab68 06be 448a 6d3e
000001a0: 4061 be3d 976a 943e 1f9b 7e3e 9c9e 803e
000001b0: 0393 1dbe 1686 ebbc 2ea8 41be e016 7abe
000001c0: b7ff 5a3e fc10 8f3e 60ac 8bbd b43d 09be
000001d0: 9d61 763e 43a2 c83d 1d40 8cbe ba7a d1bd
000001e0: 02a2 52be 6eb5 a6bd 4238 833e e252 17be
000001f0: bfc1 783c e7e6 64be 733e 453c 5f8e 3d3e
00000200: c755 653e 1b98 c83d c620 a63e ad89 953e
00000210: c312 7abe bb34 4b3e 1493 0fbe 00fa 873e
00000220: c1f1 873e cd71 a93c 4186 b5bd ff5b 0c3e
00000230: 4217 f43b 1a41 513e 2ada 82be 592a c73d
00000240: 445f a83e d59c ebbd 4e79 f23c 2662 a73e
00000250: 6c62 273e 1d39 a73e 81e0 3c3d de0a dfbd
00000260: db7e 923e b459 403e 10a9 9abd 8452 ccbc
00000270: 01a2 383e 32fa 76be 3f42 2ebe 47fa 4fbe
00000280: 8de3 88be 3002 77be a0e9 78be 9835 923e
00000290: 3eb5 2b3d f942 973e e5e9 97bd 0ce0 61bd
000002a0: 11d4 8abe 879b 163e 8c3a 383e 7ada 2bbe
000002b0: cdf4 9ebe b193 953e c65d 173e 85b3 343e
000002c0: 487b 5b3d 98a6 cb3d 9111 89be da9a 17bd
000002d0: 231f 923d a5e4 133e 9a7b 953e 6b71 373d
000002e0: aa5f ed3d 41ed 8b3e bb58 94be e563 d13d
000002f0: 4e84 703e 7f57 823e 299a 8bbe 51cd bcbd
00000300: d8b7 80bd bace 21be 7831 88be 4b39 843e
00000310: c989 d73d 0960 81be 49f0 89be 90b8 343e
00000320: 46a1 d0bb c6b8 de3c 7bc6 643e e566 4bbd
00000330: 9fb2 b43e dfde 9b3e 031e 003e 13ba f6bc
00000340: 729b 65bd acd5 78be 7012 0a3e 9e00 043e
00000350: 8dd2 15be 044e e33d dbbc cfbd 3615 58be
00000360: a733 833e 424f 413e d0c9 c1bd 372d a1bc
00000370: 500b 8dbe 1a9c 4abe 65ff 4a3c 1a0c e33a
00000380: c8f6 293e 0d06 883e d07c 70bd 3e8f 5cbc
00000390: 7b00 853e 8482 533e 7bf0 e03d b51f 22be
000003a0: 1477 a3bd 3f2d 0c3d c988 943e 3ea0 c4bd
000003b0: a697 343d 10b4 70be 0d28 cd3c 0356 c7bd
000003c0: d93b 97bd fe3b 903e 8855 903e 74a1 d53d
000003d0: 85fb 5c3d 0e11 d83c c9cc 0abe ac38 71be
000003e0: c90a 10bd 9cd9 023e 7dab 0e3e 7d40 543e
000003f0: cc6c 8abe 0c6c bebd 46cb 84be df77 6cbe
-0.23058881 0.16675322 0.087924264 0.041258983 0.07865533 0.26593766 0.18050379 0.10455319
-0.19919498 -0.015909934 0.12908845 -0.27267587 -0.1980747 0.11347507 0.10981501 0.09725073
0.033979706 0.15895301 -0.037816796 0.013289025 -0.25902978 0.09069822 -0.047362894 -0.031191258
0.26750758 -0.25751293 0.31225532 -0.27185106 0.31507966 0.17259082 0.16899814 0.017977063
0.025310151 0.07133772 -0.17362376 0.12621287 0.1526733 -0.23121099 -0.12781648 0.074638866
-0.26884434 0.10632154 -0.07288856 0.38530612 -0.30817214 -0.037547328 0.16255496 0.2854564
0.022667786 -0.060572065 0.06041426 -0.32171524 -0.2748352 -0.06405438 -0.18479028 0.13336332
-0.14655988 0.13696755 0.038672317 -0.02217916 0.1373829 -0.18639731 -0.13963239 -0.27849272
0.14748137 -0.2095695 0.2884689 -0.18202591 -0.13054125 -0.16764458 0.039458614 -0.16600426
-0.114270434 0.09928145 0.24038984 0.121805035 -0.02289793 -0.17013536 -0.2609089 0.12259302
-0.21255004 0.17906086 0.012511652 0.23019141 0.19810134 0.06143559 0.3374167 0.1578642
0.17871332 0.1851898 -0.19194238 0.28775173 -0.19244945 0.28050035 0.32136384 0.051785823
-0.005646144 0.046717893 0.20801038 0.29469052 -0.066804625 -0.22944635 -0.13125865 0.23197275
0.09295893 0.28987572 0.24863862 0.2512101 -0.15388112 -0.02875046 -0.18911812 -0.24422789
0.2138661 0.27942646 -0.06819987 -0.13402444 0.24060674 0.09796574 -0.27392665 -0.10228486
-0.20569614 -0.08140074 0.2562886 -0.14777711 0.015182911 -0.22353707 0.012038815 0.18511342
0.22396003 0.09794637 0.3244688 0.292066 -0.2442122 0.19844334 -0.1402095 0.26557922
0.2655163 0.020684147 -0.088634975 0.13706969 0.0074490616 0.2043499 -0.2555707 0.09724874
0.32885182 -0.11504523 0.029598858 0.3269207 0.16346139 0.3266076 0.04611254 -0.108907446
0.28612408 0.18784219 -0.07551777 -0.02494169 0.1803055 -0.2411888 -0.17017458 -0.20310317
-0.26736107 -0.24121928 -0.24307871 0.28556514 0.041920893 0.29543284 -0.07417659 -0.05514531
-0.2711492 0.14707766 0.17991084 -0.16782561 -0.31046143 0.29214242 0.14781865 0.17646606
0.053584367 0.099438846 -0.26771215 -0.037012912 0.07134845 0.1444269 0.29195863 0.0447859
0.11590512 0.27329448 -0.28973946 0.102241315 0.2348797 0.2545738 -0.27266052 -0.092188485
-0.062850654 -0.15801516 -0.26600242 0.2582496 0.10524327 -0.25268582 -0.26941136 0.1764853
-0.0063668815 0.027187716 0.2234134 -0.049658675 0.35292527 0.30443475 0.12511449 -0.030118024
-0.056056447 -0.2430026 0.13483596 0.1289086 -0.146311 0.11098865 -0.10143443 -0.21101841
0.25625345 0.1887789 -0.09462321 -0.01967488 -0.27547693 -0.1978611 0.012389992 0.0017322332
0.16598046 0.26567116 -0.05871278 -0.013461886 0.2597693 0.20655257 0.10983368 -0.15832408
-0.07981697 0.034222838 0.2901061 -0.09600876 0.044089936 -0.23506188 0.025043512 -0.09733202
-0.07384462 0.2817077 0.28190255 0.10431185 0.053950805 0.02637532 -0.13554682 -0.23556775
-0.035166536 0.12778324 0.13932605 0.20727725 -0.2703613 -0.09297952 -0.25936335 -0.23092602

sequential.2.weight f4 [2, 512]
00000000: c3ad ccbc 59a4 fbbd 887e 7dbe 0c01 71bc
00000010: 89d9 233f 4f6b 36be 329b c73d 279c c8bd
00000020: 089f 553f 866d a73e 606a 0fbd 88f2 243d
00000030: 503d 6d3b b8e7 98bc 9810 99be fcc7 8abc
00000040: f696 b8be 6541 023d 81a2 19bd 3927 9cbe
00000050: 660d c0bd a514 463e e289 923e b024 bbbd
00000060: 2b8f 14be 79de a63c 88af 7dbe dd54 633e
00000070: d0b4 babd de14 5ebe 81d6 fabd 9484 86be
00000080: 701d d03d c0e9 2abe 427e 64bb 43dd 70be
00000090: fdff 1cbd 1095 babc ae6e 333f 2f5c e73d
000000a0: 616c 363c 8803 093f 0912 b6bc 034a 41be
000000b0: eb10 3fbe 5b0c 2a3f 8d95 153e 42a9 763e
000000c0: 0cef 23bd 855c 8e3e da3c 893d 0114 1fbf
000000d0: a508 563a cb44 72bd 1f71 8cbc 31f7 ccbd
000000e0: 1539 173f 31f2 7abe 82e8 2bbe a08b cf3e
000000f0: 045c 13bd c790 c8bc cf28 70be b814 1c3d
00000100: 2fee b1be ab2c b0be dbfd 2ebe 0d52 613e
00000110: 8356 75bc 09fb bbba eb1d 52be d17b 16bd
00000120: 439e fa3d 5b32 c73e e1a8 bebe e02c 483d
00000130: 7180 04bd 8155 1b3e d8f3 10bf 862f 73be
00000140: 4280 c13e aa93 02bd 0d40 433e 2927 24be
00000150: c620 d83e e564 ddbc 2713 87be a802 b13e
00000160: 7b6c 1fbe f10f 77be 0f23 b2be 468d d1bd
00000170: e45d a4bb 681c 86bd 0967 343c b2b8 b9be
00000180: cbb6 113f aede 08be 6abe 3e3d 2a73 6f3e
00000190: 647e 27be da68 17be 52e3 35bd af47 b23c
000001a0: 559b 23be 6324 d23c 238f 8abd 3712 e0bb
000001b0: d18a b23c 79ff 8ebe ff81 313f 4973 8cbc
000001c0: a0f7 b43d 893f 22be 9a36 74be 8a5e 90bc
000001d0: e851 1cbe 563e 773d 64f1 b0bb e86f 133d
000001e0: 7c5c 443c bbec a03d cf37 9b3e cd38 b2be
000001f0: ec98 5dbc 672f e4be 1b41 673e cabd df3d
00000200: f34b c6bd 7976 40be 3b55 9a3e 08b5 ae3d
00000210: 5293 0f3f c431 1ebe b15e 0c3f 6951 cabe
00000220: 9c89 873d 5f84 a4bd f49a 07bd 6e8e 153c
00000230: 7035 01be 6def 223b 8829 08bf 1258 21be
00000240: 25e9 463e 6bdc b9be d57a 023f 8d5c 76be
00000250: 6b8d 46be 6fe8 9cbe 9791 98be 0e70 2a3f
00000260: 9cba e4bd 8637 04be d6e6 493f d9f3 65bd
00000270: ce60 96bd 2df0 d63b 4a72 1b3e 08cb 2a3d
00000280: 6622 153f 2e61 cf3c 1c11 52be 0263 fbbd
00000290: 62f7 a73e 8a0c 1cbe 3848 3c3c bd2c bb3c
000002a0: b8cc a6bc 7a76 07bc e1fd c1bd 2051 85bb
000002b0: 96ad 01bf 6210 f23d 52fc ef3c 7d39 09be
000002c0: e9dd 0cbf 758b edbd 40a1 a7ba 873a b4bd
000002d0: afa2 8fbe 7700 713e 38eb 42be 07af 4f3c
000002e0: fafc 033d 05ca e2bc b57b f73a aa48 fa3d
000002f0: a6aa d8bd 0265 f9bd 956e 163d 59ea acbe
00000300: ce22 67bd 1ba7 94bc 0dc4 453f 0224 babd
00000310: c42a f3bd e8f9 0b3d 7a07 983c 4215 91be
00000320: 01c3 173f 4f35 233d a7b4 fbbd d61d 5ebc
00000330: 58f9 e13e 3c32 3e3d 6863 8cbd 6ad0 00be
00000340: a0ed 1c3e 0a2e a8be 8ea6 4b3c b360 fcbc
00000350: f6c2 2c3e 0c65 fabd b068 a13e f12a 8f3b
00000360: 0e9c 3b3e c998 043d 836a 08bd 5b37 a9bd
00000370: 3ede 423f cc1f 83be 1da9 8abe 7b58 a6be
00000380: da1a 87be d761 1c3d d617 933d 9d89 81be
00000390: d750 36be bf65 8abe 82c0 78be 937b d43e
000003a0: ce99 24be 9296 2d3d 115b 113e 83bb 413d
000003b0: 1aab cbbc ae0b 0fbd 9187 793d c5dc c9bc
000003c0: 7cbe d5be 8fc9 d2bd c031 173e 72a3 b73e
000003d0: 63f9 4a3b 7afc 313d 365d 51be f398 8a3c
000003e0: 4d5f 38bb 631b 5dbe ff44 4fbd 2535 77be
000003f0: ef8b 8abc 00ff d13c 5a91 643c 60fc d63b
-0.0249852 -0.12287206 -0.24755299 -0.014709722 0.6400381 -0.17814372 0.09746398 -0.09795409
0.8344579 0.32700747 -0.035013556 0.04027036 0.0036199875 -0.01866518 -0.29895473 -0.016941063
-0.36052674 0.031800646 -0.03750849 -0.30498675 -0.093775555 0.19343813 0.2862082 -0.09137857
-0.14507739 0.020369755 -0.24773991 0.22200342 -0.091165185 -0.21687648 -0.122479446 -0.26273024
0.10161865 -0.16690731 -0.0034865295 -0.23521905 -0.038330067 -0.022776157 0.7009076 0.112968795
0.011134238 0.53521013 -0.022225397 -0.1887589 -0.18658797 0.664251 0.1460783 0.24088004
-0.040022895 0.27804962 0.0670106 -0.621399 0.000816474 -0.059147637 -0.017143784 -0.100080855
0.59071475 -0.24506451 -0.16787913 0.40536213 -0.035976425 -0.024483098 -0.23453067 0.038105696
-0.34752032 -0.3440908 -0.17089026 0.22003956 -0.014974239 -0.0014341782 -0.20519225 -0.036739174
0.12237217 0.38905606 -0.3723822 0.04887092 -0.032349054 0.15169336 -0.56622076 -0.23748598
0.37793165 -0.031879105 0.19067402 -0.16030563 0.42212504 -0.02702565 -0.263818 0.3457234
-0.15568726 -0.24127175 -0.34792373 -0.10232024 -0.0050160754 -0.06548387 0.011010894 -0.36273724
0.56919545 -0.13366196 0.04656831 0.23383775 -0.16356808 -0.14786091 -0.044406243 0.021762697
-0.15977223 0.025652116 -0.067655824 -0.006838109 0.021794708 -0.27929285 0.69338983 -0.017144816
0.08836293 -0.15844549 -0.23848954 -0.017623205 -0.1526562 0.060362183 -0.0053998698 0.035995394
0.011984941 0.07857653 0.30316016 -0.3480896 -0.013525229 -0.44567415 0.2258343 0.10924871
-0.09682455 -0.18795194 0.3014315 0.08530623 0.5608417 -0.15448672 0.5483199 -0.39515236
0.06618044 -0.0803306 -0.03310676 0.009128196 -0.12618041 0.0024861947 -0.5318837 -0.15756252
0.19424875 -0.36300978 0.50968677 -0.24058743 -0.19389884 -0.30646083 -0.29798576 0.6657723
-0.111684054 -0.12911806 0.7886785 -0.056140754 -0.07342683 0.006559393 0.15180317 0.041697532
0.5825561 0.025314894 -0.20514339 -0.122747436 0.32805926 -0.15239158 0.011491828 0.022848481
-0.02036129 -0.008267993 -0.09472252 -0.0040685087 -0.50655496 0.11819531 0.02929512 -0.13400836
-0.5502611 -0.11598865 -0.0012789145 -0.08800226 -0.28053805 0.23535334 -0.19035041 0.012676007
0.03222368 -0.027684221 0.0018881472 0.12220891 -0.105794236 -0.12177469 0.036726553 -0.33772543
-0.056429677 -0.018146088 0.77252275 -0.09088899 -0.11873391 0.034173876 0.018558253 -0.2833653
0.5928193 0.03984576 -0.12290316 -0.013556918 0.44135547 0.046434626 -0.06854898 -0.12579504
0.15325022 -0.32847625 0.012429846 -0.030807829 0.16871247 -0.122263044 0.31525183 0.0043691327
0.18321249 0.03237227 -0.033304702 -0.08262511 0.76120365 -0.25610197 -0.27082148 -0.3248938
-0.26387674 0.038179245 0.07182281 -0.25300303 -0.17804275 -0.2703075 -0.24292186 0.4150053
-0.16074297 0.042379923 0.14194895 0.047297966 -0.024861861 -0.034923248 0.0609203 -0.024641404
-0.4174689 -0.102923505 0.14765072 0.35866886 0.00309714 0.04345367 -0.20445713 0.016918635
-0.0028132976 -0.21592478 -0.05060291 -0.24141367 -0.016912429 0.025634289 0.01395067 0.006560847

sequential.2.bias f4 [2]
00000000: 0e58 d83b 2a89 cdbc
0.006602294 -0.025089819
