runs/flappybird.pt (torch, 33339 bytes, 4 tensors)

sequential.0.weight f4 [512, 12]
0	0xbef7b31f	-0.48378846
1	0x3d2e381d	0.042533983
2	0xbd7eeaf4	-0.062235788
3	0x3df1275b	0.117750846
4	0xbc6a052a	-0.014283458
5	0x3dded47a	0.108803704
6	0x3df98f3f	0.12185525
7	0xbe2d6e11	-0.16936518
8	0x3cbbd1f6	0.022927266
9	0xbf9c7860	-1.2224236
10	0xbe07940d	-0.1324007
11	0x3e8a50a1	0.2701464
12	0x3d16da8d	0.03682952
13	0xbe046e9e	-0.12932822
14	0xbcf3c6ac	-0.02975782
15	0xbe3b11af	-0.18268465
16	0xbe1feca5	-0.15617616
17	0xbd8c67e2	-0.068557516
18	0x3e87fa5e	0.26558203
19	0x3e31d42f	0.17366098
20	0x3c3d2ce1	0.0115463445
21	0x3e98b840	0.29828072
22	0xbd1e9f39	-0.038726065
23	0xbe719ca0	-0.23594904
24	0xbe76b33d	-0.24091811
25	0x3f64b92c	0.8934505
26	0x3e4db0df	0.20087002
27	0x3df40a26	0.11915998
28	0x3d8f5832	0.06999244
29	0xbdca779b	-0.09886094
30	0xbdfe68f9	-0.12422366
31	0xbed2e451	-0.41189817
32	0x3e1097b6	0.14120373
33	0xbfb0dcca	-1.381738
34	0xbe8caa59	-0.27473715
35	0xbe3908aa	-0.18069711
36	0xbeba1828	-0.36346555
37	0xbf05711b	-0.5212571
38	0xbec1e6ae	-0.37871307
39	0x3e967e68	0.29393315
40	0x3c03bd72	0.008040773
41	0x3ea1c538	0.31595778
42	0x3e45a2b1	0.19300343
43	0xbe994d7e	-0.29941934
44	0x3e1e45d3	0.15456323
45	0xbf2bbfc2	-0.67089474
46	0xbddc8aba	-0.107686475
47	0x3caf631c	0.021409564
48	0x3e63a87d	0.22232242
49	0xbe5ce143	-0.21570306
50	0x3ddb9a74	0.10722819
51	0xbe66700b	-0.22503679
52	0x3e8d088f	0.27545592
53	0x3e293386	0.16523561
54	0x3d24b5d5	0.04021247
55	0xbe1d5e21	-0.15367939
56	0x3dc33ea7	0.09533434
57	0x3e0a2e96	0.13494334
58	0x3d865aa7	0.06560259
59	0xbd3d6686	-0.046240352
60	0x3cf8ca53	0.030369913
61	0x3e3da04f	0.18518184
62	0xbc969342	-0.018380765
63	0x3d34d1aa	0.044145264
64	0x3de53a16	0.1119272
65	0x3e793660	0.24337149
66	0x3cdd249e	0.026995
67	0x3e34597c	0.1761226
68	0xbe2497e3	-0.16073565
69	0x3ea12a83	0.31477746
70	0x3e911961	0.28339675
71	0x3d88a3b3	0.06671848
72	0xbed9802e	-0.42480606
73	0x3e6bb0d9	0.23016681
74	0x3dee0cf7	0.116235666
75	0x3eba2fff	0.36364743
76	0x3e625913	0.22104292
77	0xbd4d2c24	-0.050090924
78	0xbd805893	-0.06266894
79	0x3e4e5b73	0.20152073
80	0xbd869bbe	-0.06572674
81	0xbe1876b3	-0.1488903
82	0xbdcd825e	-0.10034631
83	0x3e7af2f2	0.24506739
84	0xbee1340a	-0.43985015
85	0x3e08cab4	0.13358575
86	0x3da18e4f	0.07888471
87	0xbe114af0	-0.14188743
88	0x3eeeccaf	0.46640536
89	0x3e15588a	0.14584556
90	0x3ecf941c	0.40542686
91	0xbdffdead	-0.12493644
92	0x3edd4b21	0.4322138
93	0xbf62da4a	-0.8861433
94	0x3cc3b0c7	0.023888005
95	0x3e0574d7	0.13032852
96	0x3f35a080	0.7094803
97	0x3c54f923	0.012998852
98	0xbe9950eb	-0.29944548
99	0x3c8e5f4f	0.017379431
100	0xbee10f32	-0.43956906
101	0xbdaeb5ef	-0.08530795
102	0xbe5104cd	-0.20411988
103	0xbd804037	-0.06262248
104	0xbed4369c	-0.41447914
105	0x3f61e895	0.88245517
106	0x3cd625d6	0.026141088
107	0x3e4e0e2a	0.2012259
108	0xbe5ea89d	-0.21744008
109	0x3ed5c2d4	0.41750205
110	0x3d4e3af4	0.05034919
111	0x3e54b330	0.2077148
112	0x3e17835d	0.14796205
113	0xbe7c522f	-0.24640726
114	0xbe37e8d6	-0.17959914
115	0xbe979288	-0.29603982
116	0x3d8b1aa7	0.06792193
117	0xbfa483da	-1.2852738
118	0xbe737d79	-0.23778333
119	0x3e62346d	0.22090311
120	0xbee2fd45	-0.44333854
121	0x3eed5cf5	0.46359983
122	0xbbc10ce1	-0.005891428
123	0x3e6a2cf1	0.22868706
124	0xbdbef9fb	-0.09325024
125	0x3dda3b6d	0.10655866
126	0x3e69b1fd	0.22821803
127	0xbe7b528f	-0.24543212
128	0x3d85b639	0.06528897
129	0xbf0516f5	-0.51988155
130	0x3ea1a9ef	0.31574962
131	0xbea76aaf	-0.3269858
132	0x3e8eb36f	0.27871272
133	0x3e90f9d7	0.28315613
134	0x3b537f6d	0.0032271997
135	0x3e986bbf	0.29769704
136	0xbe10d3ae	-0.1414325
137	0xbe408149	-0.18799318
138	0xbe5ed4cc	-0.21760863
139	0xbe9bf0b4	-0.3045708
140	0x3d8479a2	0.06468512
141	0xbec3496b	-0.3814195
142	0xbeb661ab	-0.3562139
143	0x3dca9c5a	0.09893103
144	0xbe5b38b5	-0.21408351
145	0x3f2841a4	0.6572516
146	0x3c0e1fa3	0.008674535
147	0xbc30ef9a	-0.010799313
148	0x3eaa6fff	0.3328857
149	0x3dfb966b	0.12284549
150	0xbe97b27f	-0.2962837
151	0xbc801f1c	-0.015639834
152	0x3e2990ad	0.16559096
153	0xbf7e4cd5	-0.99335986
154	0xbe619ea3	-0.22033171
155	0xbe6b8444	-0.22999674
156	0x3cad84cb	0.021181485
157	0x3e446aa5	0.19181307
158	0x3bc27a97	0.005935024
159	0xbcdbecae	-0.026846256
160	0xbe375a22	-0.17905477
161	0x3db482aa	0.08813985
162	0xbe8ee582	-0.27909476
163	0xbd131aae	-0.035914116
164	0xbd538df8	-0.051649064
165	0x3e3eb502	0.18623737
166	0x3e14c7f1	0.14529397
167	0xbd8796b6	-0.06620543
168	0xbe8fa2e4	-0.28053963
169	0x3e55b0fe	0.20868298
170	0x3d0d99af	0.034570392
171	0x3e94bacc	0.29048765
172	0xbcfac740	-0.030612588
173	0xbdc89d8c	-0.09795675
174	0x3defa9f7	0.1170234
175	0xbe317534	-0.17329866
176	0x3d9c8178	0.07641882
177	0xbedc378c	-0.4301113
178	0xbb581a03	-0.0032974489
179	0xbedab021	-0.427125
180	0xbe71f649	-0.23629107
181	0x3eb79284	0.3585397
182	0x3eac60a0	0.3366747
183	0x3e3594d2	0.17732552
184	0x3e8c5c5e	0.2741422
185	0x3d922d6b	0.07137569
186	0x3e6cd968	0.23129809
187	0xbe4394c5	-0.1909972
188	0x3cdd3193	0.027001178
189	0xbf919ce1	-1.1376001
190	0xbda264a3	-0.07929351
191	0xbe5c62da	-0.21522084
192	0xbec54799	-0.38531187
193	0x3e40baeb	0.18821304
194	0x3e80b8eb	0.2514108
195	0x3ea585e5	0.32328716
196	0xbe58d353	-0.21174364
197	0x3e34eba1	0.1766801
198	0xbe302bba	-0.1720418
199	0x3e000c34	0.12504655
200	0x3e8255ee	0.25456184
201	0xbedd442c	-0.43216074
202	0x3dae13a7	0.08499842
203	0xbd5fbdbd	-0.054624308
204	0xbce2bb9f	-0.027677355
205	0x3d51ad3a	0.051190592
206	0x3e4a2c90	0.19743562
207	0xbe721dcf	-0.23644184
208	0x3ab0ead2	0.0013497716
209	0xbe1ee0af	-0.15515397
210	0x3e22472a	0.1584746
211	0x3e313b73	0.17307834
212	0xbe14bc34	-0.14524919
213	0xbd8cff81	-0.06884671
214	0xbe1f334a	-0.15546909
215	0xbe1bdb02	-0.15220264
216	0x3e421825	0.18954523
217	0x3ccfd265	0.025368879
218	0x3e138df2	0.14409617
219	0xbe608194	-0.2192443
220	0x3da82e17	0.08211916
221	0xbe7ed6d7	-0.24886642
222	0x3e3fbb73	0.1872385
223	0xbe2bbb38	-0.16770637
224	0xbe914024	-0.28369248
225	0xbe0464f8	-0.12929142
226	0x3e72ede6	0.23723564
227	0xbdf10f0f	-0.1177045
228	0xbe4271fb	-0.18988793
229	0x3efa1400	0.48843384
230	0x3e8c6b8f	0.2742581
231	0x3e4b9a73	0.19883136
232	0x3ed5fbda	0.4179371
233	0xb31b79c0	-3.619948e-08
234	0xbe277a71	-0.16355301
235	0xbccb4f6a	-0.024818141
236	0xbc0321b9	-0.008003646
237	0xbf956f36	-1.1674564
238	0xbd6bf171	-0.057603303
239	0x3dfd385d	0.12364266
240	0x3f0f7cc0	0.5604973
241	0xbd84d1bd	-0.06485317
242	0xbde295d1	-0.110637315
243	0xbdf9db25	-0.122000016
244	0xbdf3d6f9	-0.11906237
245	0x3dc5f46d	0.09665761
246	0xbec1eae7	-0.3787453
247	0xbd901173	-0.07034578
248	0xbe77092d	-0.24124594
249	0x3f5402aa	0.82816565
250	0x3dc8a86f	0.09797751
251	0x3e2df9a5	0.16989763
252	0xbe8a79d1	-0.27046064
253	0xbdc3d718	-0.0956251
254	0xbaf011c8	-0.0018315846
255	0xbc77afa3	-0.015117559

sequential.0.bias f4 [512]
0	0x3dbe155e	0.09281419
1	0x3dac66a2	0.08418013
2	0x3c91beee	0.017791238
3	0xbe2acc99	-0.1667961
4	0x3e0e2836	0.13882527
5	0x3e28e0da	0.16492024
6	0x3e8481b8	0.25880218
7	0x3db37a58	0.087635696
8	0xbed4b1ad	-0.41541806
9	0x3e22c2d6	0.15894637
10	0xbdf41dde	-0.11919759
11	0xbd84dcf4	-0.06487456
12	0x3e2dd199	0.16974486
13	0xbe079b04	-0.13242728
14	0x3e6d6288	0.23182118
15	0xbe35ab85	-0.17741211
16	0x3e53df4e	0.20690653
17	0xbe6d0fa9	-0.23150505
18	0xbe1e8bce	-0.15483019
19	0x3c8c22b8	0.017106399
20	0xbe806e1a	-0.25084
21	0x3e0d6a00	0.13809967
22	0xbe61d89d	-0.22055288
23	0x3d097dba	0.033567168
24	0xbe526f0c	-0.20550174
25	0xbe826baf	-0.2547278
26	0x3e4791b8	0.19489181
27	0x3e62e616	0.22158083
28	0x3ea46430	0.32107687
29	0xbe3e3eef	-0.18578695
30	0xbe1ddd97	-0.15416561
31	0x3dfe131f	0.12405991
32	0x3e03748c	0.12837428
33	0x3dd15e05	0.10223011
34	0x3e4c7a1e	0.19968459
35	0x3e96d136	0.2945649
36	0x3eacf7c7	0.3378279
37	0xbe24692d	-0.16055746
38	0xbdfbd006	-0.12295537
39	0x3e200682	0.15627483
40	0xbe14610c	-0.14490145
41	0x3adb0aad	0.0016711556
42	0xbe3b90c9	-0.1831695
43	0xbe708370	-0.2348764
44	0x3dd6b1e8	0.10483152
45	0xbd8d24a8	-0.06891757
46	0x3e5428eb	0.20718734
47	0xbd1117d7	-0.035423126
48	0xbeb53c42	-0.35397536
49	0x3d5d7113	0.054062914
50	0xbea07eb5	-0.3134667
51	0xbda711b3	-0.08157673
52	0x3e95f3b6	0.292875
53	0x3e8a43c3	0.27004823
54	0x3d848c3e	0.064720616
55	0xbe0af618	-0.1357044
56	0xbe0b5c46	-0.13609418
57	0xbe4e1054	-0.20123416
58	0x3e1e2b2a	0.15446153
59	0xbccb55f9	-0.024821268
60	0x3ee47fe3	0.4462882
61	0xbd7d63c1	-0.06186271
62	0x3c287a5c	0.010283079
63	0x3dc39811	0.09550489
64	0xbe6e4da5	-0.23271807
65	0x3e07afc1	0.13250639
66	0x3c9bb77f	0.019008396
67	0xbe7fecbc	-0.24992651
68	0xbe5ed445	-0.21760662
69	0x3e1d97f2	0.15389994
70	0x3e8e0670	0.27739286
71	0xbdb19bec	-0.08672318
72	0x3db217ed	0.0869597
73	0x3e8788a5	0.2647144
74	0x3c56d280	0.013111711
75	0x3e338cd3	0.17534189
76	0xbda9bac1	-0.082875736
77	0xbe386edd	-0.18011041
78	0xbe497054	-0.19671756
79	0x3dfa7a63	0.12230375
80	0x3e0bebb8	0.13664138
81	0x3dc32752	0.09528984
82	0xbe28e414	-0.16493255
83	0x3e32c4dd	0.1745791
84	0xbbe5f5e1	-0.0070178364
85	0x3e0c079e	0.1367478
86	0x3e4c4290	0.19947267
87	0xbdbecce7	-0.09316426
88	0xbe15dcf7	-0.14635073
89	0xbbac94f2	-0.005266779
90	0xbe3c345f	-0.18379353
91	0x3e807f04	0.25096905
92	0xbe2ab679	-0.1667117
93	0x3e01dda2	0.12682202
94	0xbd94c605	-0.07264332
95	0x3ded5930	0.11589277
96	0x3e7a34ee	0.24434254
97	0xbeeef517	-0.46671364
98	0xbe69f2c5	-0.22846515
99	0xbda5e5c8	-0.08100468
100	0xbe61e978	-0.22061718
101	0x3dc712ff	0.0972042
102	0xb923b135	-0.00015610906
103	0xbb9bbf66	-0.004753041
104	0x3eb1131d	0.34584895
105	0xbe0ade47	-0.13561355
106	0xbdae1cc1	-0.08501578
107	0xbd77c8ae	-0.060494117
108	0x3e56b8ef	0.20968984
109	0xbe4df28f	-0.2011206
110	0xbe28980c	-0.16464251
111	0x3e3dafe5	0.1852413
112	0xbe85f47d	-0.26163092
113	0xbe9aa8ef	-0.3020701
114	0x3e9ee351	0.31032804
115	0xbe6a4277	-0.22876917
116	0x3daf8f65	0.08572272
117	0x3d5d6276	0.054048978
118	0x3e037127	0.12836133
119	0x3d4a9fc0	0.049468756
120	0x3e09beb3	0.13451652
121	0x3e8d1add	0.27559558
122	0x3ec2ef4b	0.3807319
123	0xbe85b58a	-0.26115066
124	0xbd39de6f	-0.045378145
125	0x3e698564	0.2280479
126	0xbe00f3b1	-0.12592961
127	0xbe6e2222	-0.23255208
128	0xbdd68429	-0.10474426
129	0xbddbc49e	-0.10730861
130	0xbe672983	-0.22574429
131	0xbe2414e7	-0.16023599
132	0x3ec92bc5	0.39291206
133	0xbe3a83d9	-0.18214358
134	0x3e4d75e0	0.20064497
135	0x3cfa74ad	0.030573213
136	0x3e1dda31	0.15415265
137	0xbe1db220	-0.1539998
138	0xbe80d2f4	-0.25160944
139	0xbd81b521	-0.06333376
140	0x3e96a9c1	0.29426387
141	0x3e369c75	0.17833121
142	0x3e68cf0a	0.22735229
143	0xbbc7481d	-0.0060815946
144	0xbd6af0a6	-0.057358406
145	0x3e34e8da	0.17666951
146	0xbc0eda0c	-0.008718979
147	0xbece0fef	-0.4024653
148	0xbdf0615f	-0.11737322
149	0x3c2a0420	0.01037696
150	0xbe846f18	-0.25866008
151	0xbe927d89	-0.286114
152	0xbdae32ee	-0.08505808
153	0xbe683a58	-0.22678506
154	0xbd9288e4	-0.07155016
155	0x3e3f7adf	0.18699215
156	0xbc21aca7	-0.009867824
157	0x3dcbab47	0.09944778
158	0x3e6c466f	0.23073743
159	0xbe9dbb97	-0.30807182
160	0x3ea1b5f9	0.31584147
161	0x3d28358d	0.041066695
162	0x3cf5fda8	0.03002818
163	0x3e86d4ab	0.26334128
164	0x3cf3ea5c	0.029774837
165	0x3e9b9cd1	0.3039308
166	0xbdf1a43a	-0.11798902
167	0x3e85fa73	0.2616764
168	0x3dba6196	0.09100644
169	0xbdc9fdab	-0.098628365
170	0x3dd01611	0.10160459
171	0xbcd5d95a	-0.026104618
172	0x3eaabf35	0.33349004
173	0x3d42865f	0.047491428
174	0xbe5682dc	-0.20948356
175	0xbe8dd893	-0.27704296
176	0xbcb23016	-0.021751445
177	0x3bd065b5	0.0063597807
178	0x3e0efa8a	0.1396276
179	0xbe2b5254	-0.16730624
180	0x3e78f328	0.24311507
181	0xbcef320f	-0.029198674
182	0xbd239a75	-0.039942224
183	0x3e850bb9	0.25985506
184	0x3d6d761c	0.057973966
185	0x3e51b1db	0.20478003
186	0x3d199ff3	0.037506055
187	0x3e0f1cb4	0.13975793
188	0x3ea36fd7	0.31921265
189	0x3d4db914	0.050225332
190	0xbead7ce8	-0.33884358
191	0xbdfecc13	-0.12441268
192	0xbece5bc3	-0.40304384
193	0xbd04e605	-0.032445926
194	0x3d55efce	0.05223065
195	0xbeebfb43	-0.46090135
196	0xbdb11fcb	-0.08648642
197	0x3e119c83	0.1421986
198	0x3d7b7495	0.06139048
199	0xbe8e240e	-0.27761883
200	0x3e08eaa3	0.13370757
201	0xbd9903eb	-0.074714504
202	0x3c9b557b	0.018961659
203	0x3da2af43	0.07943585
204	0xbca56f58	-0.020194694
205	0x3e6013a9	0.218825
206	0x3df51779	0.11967368
207	0x3e5b167a	0.21395293
208	0x3e58ca89	0.21171011
209	0x3e7eada4	0.24870926
210	0xbed4ee84	-0.41588223
211	0x3e0a161a	0.13484994
212	0xbe45751e	-0.19282958
213	0x3e7f0106	0.24902734
214	0x3e6c9154	0.23102313
215	0xbddb2114	-0.106996685
216	0xbe65d6e6	-0.22445258
217	0xbdf2531d	-0.11832259
218	0x3d78e63a	0.060766436
219	0x3d9dc325	0.077032365
220	0xbe023a13	-0.12717466
221	0xbc046637	-0.008081011
222	0xbe286b68	-0.16447222
223	0x3d62b14d	0.05534487
224	0xbe81393c	-0.2523898
225	0x3e2edbec	0.17076081
226	0xbe108a8c	-0.14115351
227	0x3d635a53	0.05550606
228	0x3e4c5550	0.19954419
229	0x3e836a72	0.2566715
230	0x3e98b543	0.29825792
231	0x3e2eebfb	0.17082207
232	0xbd5189bb	-0.05115674
233	0xbe867841	-0.2626362
234	0xbe9f9360	-0.31167126
235	0x3e531021	0.20611621
236	0x3e6e71f6	0.2328566
237	0x3dbc6436	0.09198801
238	0xbe4db66d	-0.20089121
239	0xbe3663e2	-0.1781154
240	0x3de1dd3f	0.110285275
241	0xbd610cbf	-0.054943796
242	0xbd9f148c	-0.07767591
243	0x3de71730	0.112837195
244	0xbe52df37	-0.20592962
245	0x3eba61cd	0.3640274
246	0xbd9af737	-0.07566684
247	0xbea34b97	-0.31893608
248	0x3e402e49	0.18767656
249	0x3e88b081	0.26697162
250	0xbe5c7068	-0.21527255
251	0x3e406b0e	0.18790838
252	0xbe9be58f	-0.30448577
253	0x3d3c317d	0.045945633
254	0x3e6d65db	0.23183386
255	0x3df840d9	0.12121744

sequential.2.weight f4 [2, 512]
0	0xbf3cfb9f	-0.73821443
1	0xbda6d5ab	-0.08146223
2	0xc013d013	-2.3095748
3	0x3f364bcb	0.712094
4	0x3c2dd823	0.010610613
5	0xbe23627c	-0.15955538
6	0x3e85e0c2	0.2614804
7	0x3eaa24d3	0.3323122
8	0x3efe5409	0.4967349
9	0xbfa4f9a6	-1.2888687
10	0x3d551545	0.052022237
11	0xbe74d83a	-0.23910609
12	0xbfcf81fe	-1.6211545
13	0xbd044baf	-0.03229874
14	0xbd0326b7	-0.032019343
15	0xbf08a78d	-0.5338066
16	0x3cac8404	0.021059044
17	0xbbfd214c	-0.0077249166
18	0x3ca62838	0.02028285
19	0xbfd62506	-1.6730049
20	0x3f1bf354	0.60918164
21	0x3d0c3c02	0.034236915
22	0x3c8982ef	0.016786067
23	0xbd22d678	-0.039755315
24	0x3ceff1a6	0.029290032
25	0x3b478bf5	0.003044841
26	0x3deced13	0.11568656
27	0xbe5416c3	-0.20711808
28	0x3e22bed5	0.15893109
29	0xbc1f5e6d	-0.009727103
30	0x3d1d9033	0.038467597
31	0xbd65c11e	-0.056092374
32	0x3d682a31	0.05668086
33	0xbfc584fe	-1.5431211
34	0x3d983780	0.07432461
35	0xbec4c03a	-0.38427907
36	0xbc90c14e	-0.0176703
37	0x3ecd3de0	0.4008627
38	0xbcf15457	-0.029459162
39	0xbed2b97b	-0.41157135
40	0x3d1b682a	0.037941135
41	0x3dbed7e2	0.0931852
42	0xc028ed76	-2.6394935
43	0x3e4e2a72	0.20133379
44	0xbbedc996	-0.007256697
45	0xbf6e1551	-0.93001276
46	0xbe03f00c	-0.1288454
47	0xbed18df5	-0.40928617
48	0x3e448ce4	0.1919437
49	0x3d834035	0.06408731
50	0xbeccb06c	-0.3997835
51	0x3c7ed7cb	0.015554379
52	0x3e4d0d2b	0.20024554
53	0xbd921cda	-0.07134409
54	0xbe2f86c1	-0.17141248
55	0xbca1e310	-0.019761592
56	0xc01317d7	-2.29833
57	0x3f05df86	0.52294195
58	0x3cff207c	0.03114342
59	0x3c7da8a4	0.015482102
60	0x3eb81983	0.35956964
61	0x3a664942	0.000878472
62	0x3e12e872	0.14346483
63	0x3f018581	0.50594336
64	0x3e7e813b	0.24853985
65	0x3e7a8adc	0.24467033
66	0xbf6a2dfd	-0.9147642
67	0xbfb253b7	-1.3931798
68	0x3d29ddc6	0.041471265
69	0x3ea9cb64	0.33162987
70	0xbe765500	-0.24055862
71	0xbf4a58bf	-0.79041666
72	0xbcbfec10	-0.023427993
73	0xbe1ce7d3	-0.15322809
74	0xbf523841	-0.82117087
75	0xbf280e67	-0.65646976
76	0xbdcca96f	-0.099932544
77	0x3ee32dcf	0.44370887
78	0xbb922b9b	-0.0044607646
79	0x3e162040	0.1466074
80	0x3cd2275c	0.025653534
81	0x3d76e4c8	0.060276777
82	0x3cb9d04e	0.022682335
83	0xbe0a85c3	-0.13527589
84	0xbdb91ba6	-0.09038477
85	0xbe109236	-0.14118275
86	0x3dd8ab6f	0.10579573
87	0xbf9bb4fd	-1.2164608
88	0x3ef39ee6	0.47582167
89	0xbf3ed18f	-0.7453851
90	0x3bbd070c	0.0057686623
91	0xbe6979f8	-0.22800434
92	0x3d0951b5	0.033525188
93	0xbd2c5f79	-0.042083237
94	0x3caa5fcf	0.020797638
95	0x3d1bf149	0.038071904
96	0xbd2490ad	-0.040177036
97	0x3edbed40	0.42954445
98	0x3cd3ce2c	0.025855146
99	0xbd9a7fa8	-0.0754388
100	0x3de3dfc5	0.11126665
101	0x3d98c80d	0.07460032
102	0x3d56ea49	0.052469525
103	0xbfb3f68b	-1.4059614
104	0xbd339269	-0.0438408
105	0xbef49512	-0.47769982
106	0x3e93768c	0.28801382
107	0xbd1747c9	-0.036933694
108	0xbc9df1d0	-0.019280344
109	0xbea85934	-0.32880557
110	0xbc642e41	-0.013927043
111	0xbf0d779d	-0.5526064
112	0xbf4e5460	-0.80597496
113	0x3e99c087	0.300297
114	0x3f20f616	0.628755
115	0x3fc35b68	1.526227
116	0x3dfde1dd	0.123965956
117	0xbdf3ddb9	-0.119075246
118	0x3dc2c3d2	0.09510006
119	0x3eba35cf	0.36369178
120	0x3e8bfb92	0.2734037
121	0x3da64538	0.08118671
122	0x3ed1abc6	0.40951365
123	0xbcd1d79f	-0.025615511
124	0xbfc75c20	-1.5574989
125	0x3e3aae14	0.18230468
126	0x3e043f9b	0.12914889
127	0x3d8d22c0	0.06891394
128	0xbe6fe187	-0.23425876
129	0x3dc71046	0.09719901
130	0x3f3fca69	0.7491823
131	0x3d2c26ca	0.04202918
132	0xbe1f6ad0	-0.1556809
133	0x3cbecb76	0.023290377
134	0x3e9aab20	0.30208683
135	0x3e939fa4	0.28832734
136	0x3ea10027	0.3144543
137	0xbebb268e	-0.36552852
138	0xbd0cfdaf	-0.03442162
139	0xbb988100	-0.00465405
140	0x3e2f8d73	0.17143802
141	0xbd8a079a	-0.06739731
142	0xbe8223b1	-0.25417855
143	0x3ce46bcf	0.027883438
144	0xbccdf6be	-0.02514207
145	0x3d260f97	0.04054221
146	0x3c43b4d4	0.011944968
147	0x3f1bbd61	0.60835844
148	0x3e35f3a7	0.17768727
149	0xbc3e28f1	-0.011606441
150	0x3d29aa89	0.0414224
151	0xbe33992d	-0.175389
152	0x3c2a966e	0.010411842
153	0x3c8fb976	0.01754449
154	0x3f211c7e	0.629341
155	0xbfececaa	-1.8509724
156	0x3cb1eb7d	0.021718735
157	0xbebab60b	-0.36467013
158	0x3eab7688	0.3348887
159	0x3e893668	0.2679932
160	0xbf053ae2	-0.52042973
161	0xbe98a5e1	-0.29814056
162	0xbf5b95a6	-0.8577522
163	0xbe4d934e	-0.20075724
164	0x3e44e985	0.19229706
165	0x3dd684be	0.10474537
166	0x3e7307c9	0.23733439
167	0x3cd3df9e	0.025863465
168	0xbf4b4458	-0.7940116
169	0x3e223dcd	0.15843888
170	0xbdc9c79d	-0.09852526
171	0x3b32ce5e	0.002728365
172	0x3ee2c480	0.44290543
173	0x3b2845d4	0.0025676386
174	0x3c38e4ff	0.011285066
175	0x3cd73018	0.02626805
176	0x3c7c311e	0.01539257
177	0x3f2a56ff	0.66538996
178	0x3d769c2c	0.06020753
179	0x3ee3ef64	0.44518578
180	0xbe901778	-0.28142905
181	0x3ca6322c	0.020287596
182	0xc005c68b	-2.090243
183	0x3e6c6a17	0.23087345
184	0xbd00b35e	-0.031421058
185	0x3e0916ab	0.13387553
186	0xbf32e606	-0.6988224
187	0x3f14b83f	0.5809364
188	0xbf3145e6	-0.6924728
189	0xbc912f8a	-0.017722864
190	0xbe709f11	-0.23498179
191	0xbb9bf811	-0.0047597964
192	0x3f37e241	0.7182961
193	0x3d19c6ff	0.037543293
194	0x3d14cc95	0.036327917
195	0x3f03b537	0.51448387
196	0x3f44a0e0	0.76807976
197	0xbc0f4a28	-0.008745708
198	0x3df346fc	0.118787736
199	0x3ceef442	0.029169206
200	0x3e32f791	0.17477252
201	0x3b996949	0.0046817404
202	0x3c121691	0.008916513
203	0x3e0bdf66	0.13659438
204	0xbeb32261	-0.34987167
205	0x3db4f703	0.08836176
206	0xbf7d78a0	-0.99012184
207	0x3d594a94	0.05304964
208	0xbe4eb45a	-0.20185986
209	0xbf289166	-0.6584686
210	0x3e90604c	0.2819847
211	0xbf8f3347	-1.1187524
212	0xbb2df787	-0.0026545243
213	0x3d33f0db	0.04393087
214	0x3d9decb0	0.0771116
215	0xbbef930a	-0.0073112296
216	0xbefb350d	-0.49063912
217	0x3d024509	0.03180412
218	0x3cfa1a82	0.030530218
219	0xbf2bf57e	-0.67171466
220	0xbe979a70	-0.29610014
221	0x3cf0ffe5	0.029418895
222	0x3d04dd85	0.03243782
223	0xbbc8d7c1	-0.0061292355
224	0xbe5e10ff	-0.21686171
225	0xbcaccbbe	-0.021093246
226	0xbf535aeb	-0.82560605
227	0xbf1093c1	-0.56475455
228	0x3d508ba0	0.050914407
229	0x3ee243d3	0.4419237
230	0xbf1cb85c	-0.6121881
231	0x3d1474ff	0.03624439
232	0xbdbf6150	-0.09344733
233	0x3d14780a	0.03624729
234	0x3e908757	0.28228256
235	0xbdfdc5b3	-0.12391224
236	0xbb681642	-0.0035413657
237	0xbf2b9e41	-0.6703835
238	0xbd1c8878	-0.038216084
239	0xbc247bf7	-0.010039321
240	0x3c7a869b	0.0152908815
241	0xc0084c74	-2.1296663
242	0xbe7a5f46	-0.24450406
243	0x3d0725ce	0.032995038
244	0xbb87f371	-0.0041488935
245	0xbdfbb005	-0.122894324
246	0xbdf9e3ed	-0.122016765
247	0xbec3068b	-0.3809093
248	0x3e4c9cce	0.19981691
249	0x3d89dc47	0.06731468
250	0x3cb22b5f	0.021749197
251	0x3d93a33a	0.07208867
252	0xbfb34185	-1.400437
253	0x3e343639	0.1759881
254	0xbd0f9441	-0.035053495
255	0x3e2a2d9d	0.16618963

sequential.2.bias f4 [2]
0	0xbb6b3d7f	-0.0035894809
1	0xbb9eb333	-0.0048431396
